model/keypoint_classifier/keypoint_classifier.tflite (tflite, 6852 bytes, 6 tensors)

sequential/dense/BiasAdd/ReadVariableOp f4 [20]
0	0x3ef88656	0.4853999
1	0x3e19643b	0.14979641
2	0xbdbc2a7d	-0.091877915
3	0xbf222df0	-0.63351345
4	0x3f15bee2	0.5849439
5	0xbf2a30cb	-0.664807
6	0xbeb718e4	-0.35761178
7	0xbfa05094	-1.252459
8	0xbf0ec13e	-0.55763614
9	0xbf9f07cb	-1.2424253
10	0xbee743a9	-0.45168808
11	0xbf2482d7	-0.64262146
12	0xbf08bcc4	-0.53413033
13	0xbf3b343f	-0.73126596
14	0xbe8e6bfb	-0.27816758
15	0xbf216073	-0.63037795
16	0xbf6c2eb4	-0.92258763
17	0xbf4c0164	-0.7968962
18	0xbfadf784	-1.3591161
19	0xbf69453d	-0.91121274

sequential/dense_2/BiasAdd/ReadVariableOp f4 [11]
0	0xbf3fb64e	-0.7488755
1	0x3d005848	0.03133419
2	0x3f59265a	0.84824145
3	0x3e9d2844	0.30694783
4	0x3f92cc7f	1.1468657
5	0xbf45f433	-0.77325743
6	0xbf17d559	-0.5930992
7	0x3f19ad3b	0.60029954
8	0xbf54ef25	-0.83177406
9	0xbf8fd834	-1.1237855
10	0x3edda432	0.43289334

sequential/dense_1/BiasAdd/ReadVariableOp f4 [10]
0	0xbf3a5ce0	-0.72797966
1	0xbe261a42	-0.16220954
2	0x3f1896e1	0.5960522
3	0x3f3f57c9	0.74743325
4	0x3f617190	0.8806391
5	0x3f330960	0.6993618
6	0x3f83cc8b	1.0296797
7	0x3f1faeea	0.6237627
8	0x3fe744a8	1.8067827
9	0x3edf8f88	0.43664193

sequential/dense/MatMul f4 [20, 42]
0	0x3e8b727a	0.27235776
1	0xbe500b92	-0.20316914
2	0xbfa7c445	-1.3106772
3	0x3f70fa3c	0.9413183
4	0xbf4e8342	-0.80669034
5	0x3f04cc3b	0.5187413
6	0xbed24b1c	-0.4107293
7	0x3f0a1ef8	0.53953505
8	0xbe02582a	-0.12728944
9	0x3edf4de9	0.43614128
10	0xbe8aa53e	-0.27079195
11	0xbe82fb97	-0.25582573
12	0xbe13a7df	-0.14419506
13	0xbe8421d3	-0.25807056
14	0xbd10c49e	-0.03534376
15	0xbe024aa0	-0.1272378
16	0x3dc2d0e5	0.095125
17	0x3bf13b50	0.007361807
18	0xbcebd986	-0.028790247
19	0xbec99e40	-0.39378548
20	0xbdb9605a	-0.09051581
21	0xbcf40ea6	-0.029792141
22	0x3e4f29ff	0.20230864
23	0x3f214373	0.62993544
24	0x3ecec934	0.4038788
25	0x3f52eb25	0.8239005
26	0x3e2eb7bc	0.17062277
27	0xbecca8cf	-0.3997254
28	0xbdb30163	-0.08740499
29	0x3e88d50c	0.26725042
30	0x3e2006c6	0.15627584
31	0x3f4435dd	0.7664469
32	0x3ea3c83d	0.31988707
33	0x3f747819	0.95495754
34	0x3e67fc59	0.22654857
35	0xbed710be	-0.4200496
36	0xbde504b6	-0.11182539
37	0x3ea3c149	0.31983402
38	0xbd416cf0	-0.04722303
39	0x3f3a0dc4	0.72677255
40	0x3ddd77b8	0.1081385
41	0x3f549833	0.8304474
42	0x3e0e5acc	0.13901824
43	0xbe2839b0	-0.16428256
44	0x3f6da6be	0.92832553
45	0x403e05f7	2.969114
46	0x3ecf01a4	0.4043094
47	0x40135abf	2.3024137
48	0x3e5de56a	0.21669546
49	0x3f6277cd	0.8846405
50	0x3c31cc1f	0.010851889
51	0xbe443ea8	-0.19164526
52	0x3ee4a966	0.4466049
53	0x3f3277e0	0.69714165
54	0x3e08d867	0.13363801
55	0x3e6b20a0	0.22961664
56	0x3c3c8cff	0.011508225
57	0x3dbae526	0.09125738
58	0xbd851456	-0.064980194
59	0xbd829c54	-0.063774735
60	0x3e386177	0.1800593
61	0x3e8fff4f	0.28124472
62	0x3dffbab9	0.124867864
63	0x3bed4f5c	0.0072421264
64	0xbd1ca1dc	-0.0382403
65	0x3d8763e8	0.066108525
66	0xbd3a1948	-0.045434266
67	0x3df23127	0.11825781
68	0x3de8a28f	0.113591306
69	0x3c9f2a2b	0.019429287
70	0xbd0c3ced	-0.03423779
71	0xbe06aa47	-0.13150893
72	0xbe19ae08	-0.15007794
73	0xbd49995f	-0.04921853
74	0xbe18ce62	-0.14922479
75	0x3c49deed	0.012321216
76	0xbe2bb935	-0.1676987
77	0xbea28a16	-0.31745976
78	0xbe39fed2	-0.18163612
79	0xbe786487	-0.24257098
80	0xbe96dafd	-0.2946395
81	0xbd4ef41f	-0.05052578
82	0xbe8937f5	-0.26800504
83	0x3da5c5dd	0.0809438
84	0x3e2d1f26	0.16906413
85	0x3e52a818	0.20571935
86	0xbda89edc	-0.08233425
87	0xbf029a49	-0.5101667
88	0x3d8d0be8	0.068870366
89	0xbe3982e8	-0.18116343
90	0x3e0892f1	0.13337304
91	0xbe48a217	-0.19593082
92	0x3e33afa4	0.1754747
93	0xbe8cb52c	-0.27481973
94	0x3f0f6a5b	0.5602166
95	0xbdc4b921	-0.09605623
96	0x3e228616	0.15871462
97	0x3d402525	0.046910424
98	0xbe8093db	-0.25112805
99	0x3d508f65	0.050918
100	0xbedc39d3	-0.43012866
101	0x3c87a097	0.016556067
102	0x3f8636ea	1.0485508
103	0xbd3f6af8	-0.046732873
104	0x3e030182	0.12793544
105	0x3da52a80	0.08064747
106	0xbebe091f	-0.37116334
107	0x3e833554	0.25626624
108	0xbeecdf63	-0.4626418
109	0x3e936636	0.28788918
110	0x3fb951b8	1.4478064
111	0xbdab028b	-0.083500944
112	0x3e831df6	0.25608796
113	0x3d233d02	0.039853103
114	0xbe527f16	-0.20556292
115	0x3e4b1292	0.19831303
116	0xbe8a0147	-0.269541
117	0x3e3e5fef	0.18591283
118	0x3fa2f712	1.273165
119	0xbc47f436	-0.0122042205
120	0x3eb22e53	0.34800968
121	0x3d4cf179	0.050034974
122	0xbe152bcd	-0.1456749
123	0x3e1b570f	0.15169929
124	0xbe969e39	-0.2941759
125	0x3e43ef73	0.19134311
126	0xbe993a68	-0.29927373
127	0xbe264b65	-0.16239698
128	0xbe317cdc	-0.17332786
129	0x3f83208a	1.0244305
130	0xbca4d1ac	-0.02011951
131	0x3f226211	0.6343089
132	0x3db02bc8	0.086021006
133	0x3ee43968	0.44575047
134	0x3e1a5101	0.15069963
135	0x3e99f66e	0.30070823
136	0x3e454153	0.192632
137	0x3d90863a	0.07056852
138	0x3d943a68	0.072377026
139	0x3dd0d13d	0.10196159
140	0x3d4570f1	0.048203412
141	0x3dd9a1bb	0.10626551
142	0x3cfc8871	0.03082678
143	0x3c8825a6	0.016619515
144	0x3ea4df2c	0.32201517
145	0x3cf49a32	0.029858682
146	0x3dafcddc	0.085841864
147	0x3c3bc121	0.01145962
148	0xbe2bee9c	-0.16790241
149	0xbdc3a6d0	-0.09553301
150	0xbf060f20	-0.5236683
151	0xbf033051	-0.512456
152	0x3ec3ad74	0.38218272
153	0xbc1f16bd	-0.009710011
154	0x3cdca0ad	0.026932085
155	0xbc7ee566	-0.015557623
156	0xbf0281b8	-0.50979185
157	0xbec850d2	-0.3912416
158	0xbf5f5663	-0.8724119
159	0xbf85f176	-1.0464313
160	0x3eb6e9e9	0.35725334
161	0xbbef0263	-0.0072939857
162	0x3d5c9f3b	0.05386279
163	0x3d36d122	0.04463304
164	0xbec5594f	-0.385447
165	0xbe09c621	-0.13454486
166	0xbf87f0cc	-1.062036
167	0xbea353e4	-0.3189994
168	0x3df28b28	0.11842948
169	0x3e6a7a74	0.22898275
170	0xbe4f280f	-0.20230125
171	0x40213aaa	2.5192056
172	0xbd32fc49	-0.04369763
173	0x3fef7ccb	1.8709959
174	0x3d8e8c91	0.06960405
175	0x3f94981b	1.1608919
176	0x3e01f099	0.12689437
177	0x3f7987e6	0.9747299
178	0xbf1fe942	-0.624653
179	0x3e28c881	0.16482736
180	0xbe86fe5f	-0.26365945
181	0x3e03bb1c	0.12864345
182	0xbe48aa6b	-0.1959626
183	0x3db629cf	0.08894693
184	0xbe34eec4	-0.17669207
185	0xbc51e4c9	-0.012810894
186	0xbeb9788f	-0.3622479
187	0x3d5d1f67	0.053985026
188	0xbd894b64	-0.06703833
189	0x3e409475	0.18806632
190	0x3e34b009	0.17645277
191	0x3e433ff6	0.19067368
192	0x3e54913d	0.20758529
193	0x3e143b67	0.14475785
194	0xbe3e7d80	-0.18602562
195	0x3cbb2288	0.022843614
196	0xbe184ea9	-0.14873756
197	0x3e282b59	0.16422786
198	0x3da5db1f	0.08098435
199	0x3e013487	0.12617694
200	0x3e12cd6a	0.14336172
201	0x3d56e5e9	0.052465353
202	0x3bd0193c	0.0063506644
203	0xbb33a01c	-0.0027408665
204	0x3db409fd	0.087909676
205	0x3dc15dc4	0.094417125
206	0x3e943b07	0.28951284
207	0x3dc63253	0.09677567
208	0x3e889746	0.26677912
209	0x3dc1b521	0.09458376
210	0xbd8b97d6	-0.0681607
211	0xbe94ca19	-0.29060438
212	0xbeaaadc2	-0.33335692
213	0x3f7f0eeb	0.9963214
214	0xbe1052ab	-0.14094035
215	0x3f00188a	0.50037444
216	0xbe67c090	-0.2263205
217	0x3ed037d0	0.40667582
218	0xbe96bc34	-0.29440463
219	0x3ee30d76	0.44346207
220	0x3e1ed8fb	0.15512459
221	0x3dc190e3	0.09451463
222	0x3dd579a6	0.10423593
223	0xbd15bd3f	-0.036557432
224	0x3d78fb05	0.060786266
225	0xbe24f493	-0.16108923
226	0x3d279996	0.040917955
227	0xbe008390	-0.12550187
228	0x3ebe7b25	0.37203327
229	0x3dd8444b	0.10559901
230	0x3e284857	0.16433845
231	0x3d8a38cf	0.06749117
232	0xbd56188a	-0.052269496
233	0x3ddb0609	0.106945105
234	0xbdd87129	-0.105684586
235	0x3e3a84a0	0.18214655
236	0x3f02e275	0.51126796
237	0x3dc1949b	0.09452172
238	0x3d93009f	0.07177853
239	0xba671af9	-0.000881597
240	0xbebb3c9a	-0.36569673
241	0xbe88137c	-0.26577365
242	0xbf375e23	-0.71628016
243	0xbd8e253a	-0.06940694
244	0x3f04f777	0.519401
245	0x3dc60dff	0.09670638
246	0x3d53f0a8	0.05174318
247	0xbe1ab859	-0.15109386
248	0xbf1c4638	-0.61044645
249	0xbf3c221a	-0.73489535
250	0xbfb3407c	-1.4004054
251	0xbfbda6f0	-1.481657
252	0x3de93254	0.113865525
253	0x3ce04300	0.027375698
254	0xbed421e1	-0.41432098
255	0xbdbbd165	-0.09170798

sequential/dense_1/MatMul f4 [10, 20]
0	0xbe34f90d	-0.1767313
1	0x3efbb5da	0.4916218
2	0x3eed963f	0.4640369
3	0xbf3c55f0	-0.7356863
4	0xbe3db3e9	-0.18525662
5	0xbf43a9ec	-0.76431155
6	0xbdd2dc19	-0.102958865
7	0xbf9b1914	-1.2117028
8	0xbfd1db4f	-1.6395053
9	0xbfc813fd	-1.56311
10	0x3f18247c	0.5943067
11	0xbf1b3a08	-0.60635424
12	0x3e7c2a9d	0.2462563
13	0x3f8ce299	1.1006652
14	0xbe065db6	-0.13121685
15	0x3e8c04a7	0.273473
16	0x3f1fad27	0.62373585
17	0x3f4780be	0.7793082
18	0x3eae4d0a	0.3404315
19	0x3f619221	0.881136
20	0x3f61d2aa	0.8821207
21	0x3f7a6741	0.978138
22	0x3f56d37c	0.8391645
23	0x3ca8fecd	0.020629311
24	0x3f725506	0.94660985
25	0x3dfdf559	0.12400312
26	0x3fc5120f	1.5396136
27	0x3e9bbae6	0.3041603
28	0x3f6008b7	0.875133
29	0x3c8bbe45	0.017058501
30	0x3ea89007	0.32922384
31	0x3f6d30b5	0.92652446
32	0x3d5c51bb	0.05378888
33	0x3f956e2b	1.1674246
34	0x3fb67b02	1.4256289
35	0x3e4fb1a2	0.20282605
36	0x3ec8c79d	0.39214793
37	0x3e358e3a	0.17730036
38	0xbdfc4592	-0.12317957
39	0x3f30ffd7	0.6914038
40	0xbf646dca	-0.89230025
41	0x3c5eac30	0.013590857
42	0xbe5a7828	-0.21334898
43	0x3fa5537a	1.29161
44	0x3d38702f	0.04502886
45	0x3f91c845	1.1389242
46	0xbec17447	-0.37784025
47	0x3e1ff764	0.15621716
48	0x3e5ce9c5	0.21573551
49	0x3f720228	0.9453454
50	0xbbc9c576	-0.0061575724
51	0xbc5c28a5	-0.013437425
52	0x3f91203e	1.1337965
53	0x3e5fb68f	0.21846984
54	0xbea51091	-0.32239202
55	0x3f173f3c	0.59080863
56	0x3e903f98	0.28173518
57	0x3f48a47a	0.7837597
58	0x3eea6810	0.45782518
59	0x3e28c834	0.16482621
60	0xbee75e61	-0.45189193
61	0xbe8fd488	-0.28091836
62	0x3f439df8	0.76412916
63	0xbf1af027	-0.60522693
64	0xbed69f46	-0.4191839
65	0xbf56f6e5	-0.8397048
66	0xbd8026c3	-0.06257393
67	0xbddefcd1	-0.10888065
68	0xbd02540a	-0.031818427
69	0xbd33f2b8	-0.043932647
70	0x3ee7a2a3	0.4524127
71	0x3e890da1	0.2676821
72	0x3e091053	0.13385133
73	0xbdf96e73	-0.1217927
74	0xbfc22b5e	-1.5169485
75	0x3d8d90ae	0.06912361
76	0x3ea95711	0.3307424
77	0x3e8ec2ef	0.27883098
78	0x3f3f8b46	0.7482189
79	0x3f3d72ab	0.74003094
80	0x3e96c427	0.29446527
81	0x3dcdcf1f	0.10049271
82	0xbbd78e05	-0.0065782093
83	0xc00a96e0	-2.1654587
84	0x3d248832	0.04016895
85	0x3ed47dff	0.41502377
86	0x3eee2f30	0.46520376
87	0x3ee61e4e	0.44944996
88	0x3f2e50ac	0.68091846
89	0x3dde5546	0.10856108
90	0x3e9a6b9d	0.30160227
91	0xbdc84c1f	-0.09780144
92	0xbfbb2bca	-1.4622738
93	0x3ecbcdda	0.3980549
94	0xbf7ff9b9	-0.9999042
95	0x3f30aa96	0.69010293
96	0x3ee888b2	0.4541679
97	0x3e07c2c2	0.13257888
98	0xbe1a7e9e	-0.15087363
99	0xbcff26ac	-0.03114637
100	0x3f1c0a70	0.60953426
101	0xbef40d22	-0.4766627
102	0x3f1f639b	0.6226136
103	0x3f09003d	0.5351599
104	0xbe694ae3	-0.22782473
105	0x3e9d44ea	0.3071664
106	0xbdedac6d	-0.11605153
107	0x3f9484b4	1.1602998
108	0x3f30e09f	0.69092745
109	0x3efa2b6d	0.48861256
110	0x3e0d664e	0.13808557
111	0xbf441e78	-0.7660899
112	0xbe9f6cd4	-0.31137717
113	0xbe186bdc	-0.14884895
114	0x3ea38bbd	0.3194255
115	0xc0003365	-2.0031369
116	0xbfa24f21	-1.2680398
117	0xbfdcb1eb	-1.7241796
118	0xbf6d1707	-0.9261326
119	0xbf7aadea	-0.9792162
120	0xbe4db5f7	-0.20088945
121	0xbf6e3ce6	-0.93061674
122	0x3f1327e1	0.57482725
123	0xbe4c6a9f	-0.19962548
124	0xbee4af53	-0.44665012
125	0xbe237591	-0.15962817
126	0x3f66c111	0.90138346
127	0x3f8cabe6	1.0989959
128	0xbf8fc8ae	-1.1233118
129	0x3e9ccdd7	0.30625793
130	0xbe55c020	-0.20874071
131	0x3f816610	1.0109272
132	0xbe97d391	-0.296536
133	0x3f62b9fd	0.88565046
134	0x3f46c9c0	0.77651596
135	0xbe194261	-0.14966728
136	0x3ddcc636	0.10779993
137	0xbe094713	-0.13406019
138	0x3f321642	0.6956521
139	0x3ea4d18f	0.3219113
140	0x3f33ea2e	0.70279205
141	0x3f834940	1.0256729
142	0x3f359d38	0.7094302
143	0x3d23aab2	0.03995771
144	0x3f8996bd	1.0749127
145	0x3de76c47	0.11299949
146	0x3e65e00b	0.22448747
147	0x3f0a132c	0.53935504
148	0x3e31db8e	0.1736891
149	0x3e191e20	0.14952898
150	0x3e7e7130	0.24847865
151	0x3f0d11c3	0.5510523
152	0x3d56be5f	0.052427646
153	0x3e38873b	0.18020336
154	0xbe990b04	-0.29891217
155	0xbe5d75b2	-0.21626928
156	0xbe556c8b	-0.20842187
157	0x3f212a6b	0.6295535
158	0x3df24d02	0.11831094
159	0x3db5afd7	0.088714294
160	0x3e66a22d	0.22522803
161	0x3e1b290e	0.1515238
162	0x3de69084	0.11258033
163	0xbf08a739	-0.5338016
164	0x3e785328	0.24250472
165	0x3de1af22	0.11019732
166	0xbeb05d94	-0.34446394
167	0xbe9fd221	-0.31215003
168	0x3fb12e05	1.3842169
169	0xbfaf2118	-1.3681974
170	0x3f2468a9	0.642222
171	0x3d9a97e5	0.07548503
172	0xbeb4866d	-0.3525881
173	0xbeab854c	-0.33500135
174	0x3e147a37	0.14499746
175	0xbf9b0d16	-1.2113369
176	0xbf345c69	-0.70453507
177	0xbc65ede2	-0.014033766
178	0x3dacc684	0.08436301
179	0x3e97328d	0.29530755
180	0x3d73114f	0.05934268
181	0x3d9d98b3	0.07695141
182	0xbd84307c	-0.0645456
183	0x3ea9773d	0.33098784
184	0x3d3d384d	0.04619627
185	0x3f9fd94c	1.2488189
186	0xbe0a67a5	-0.135161
187	0x3f329ed0	0.6977358
188	0x3ea71375	0.32632032
189	0x3f7f80ea	0.9980608
190	0x3f65869a	0.8965851
191	0x3d9985de	0.07496236
192	0x3eb7b0a4	0.35876954
193	0xbebf7ae7	-0.37398455
194	0xbdc54a3f	-0.09633302
195	0x3e870a6c	0.2637514
196	0xbeec356b	-0.46134505
197	0xbe840a21	-0.25788978
198	0x3fb35f77	1.4013509
199	0x3e4c65bc	0.19960684

sequential/dense_2/MatMul f4 [11, 10]
0	0xbe24c93b	-0.16092388
1	0x3f8ef26f	1.1167735
2	0x3f2d8e5e	0.6779536
3	0xbef2cf26	-0.47423667
4	0x3e17e040	0.14831638
5	0xbe5c7952	-0.21530655
6	0xbeba920b	-0.36439547
7	0x3d9826ff	0.07429313
8	0xbeb18acf	-0.34676215
9	0xbe8e5a35	-0.27803198
10	0x3f32c9c2	0.6983911
11	0x3eb464c8	0.3523314
12	0xbed99e5b	-0.42503628
13	0xbefa63b5	-0.48904195
14	0xbf49d422	-0.78839314
15	0xbbb34449	-0.0054707867
16	0x3e6ed416	0.23323092
17	0x3f73198f	0.94960874
18	0xbf103b4a	-0.5634047
19	0x3f22eb94	0.63640714
20	0xbdef0aa6	-0.11671953
21	0x3e92d638	0.2867906
22	0xbf620184	-0.8828356
23	0xbc2fe17c	-0.010734912
24	0xbf007291	-0.50174814
25	0xbd11dac9	-0.03560904
26	0xbeea2a24	-0.45735276
27	0x3f25fece	0.64841926
28	0x3f1fb364	0.62383103
29	0xbe31b3c9	-0.17353739
30	0x3e3470d4	0.17621166
31	0xc0140626	-2.3128753
32	0x3f438211	0.7637034
33	0xbf412b7e	-0.7545699
34	0x3db0b011	0.08627332
35	0xbf03d567	-0.514975
36	0x3d3b8646	0.04578235
37	0xbfa2fbd6	-1.2733104
38	0xbf27a5b6	-0.6548723
39	0x3e6dfd02	0.23241046
40	0xbed5cde0	-0.41758633
41	0xbd2703ca	-0.040775098
42	0x3e7017fe	0.23446652
43	0x3e35fe12	0.17772701
44	0xbf8a56a2	-1.0807688
45	0xbedeac1a	-0.43490678
46	0xbf8f8153	-1.1211342
47	0x3ed6ad0d	0.41928902
48	0x3f1ec1b9	0.6201435
49	0xbf9a07b5	-1.2033602
50	0x3ed15a87	0.4088938
51	0x3eadd682	0.3395272
52	0xbf3d1c1c	-0.73871017
53	0x3db54968	0.08851892
54	0xbf224608	-0.6338811
55	0xbd929ba7	-0.071585946
56	0x3f6465ad	0.89217645
57	0xbdb4adf9	-0.08822245
58	0xbf9be2fd	-1.2178646
59	0xbe02bccb	-0.12767331
60	0xbf2f8cc2	-0.68574154
61	0xbf226372	-0.6343299
62	0xbe3f2546	-0.18666562
63	0xbf293e82	-0.66111004
64	0xbf5a5d72	-0.85298836
65	0xbf0a6183	-0.5405504
66	0xbf744a3c	-0.9542577
67	0xbf36ff00	-0.7148285
68	0x3fa85c56	1.3153179
69	0x3f4ea199	0.8071533
70	0xbe512342	-0.20423606
71	0x3eba4502	0.36380774
72	0xbfb68f1d	-1.4262425
73	0x3f1b4b31	0.6066161
74	0xbdd111cb	-0.10208472
75	0xbf3b2e9e	-0.7311801
76	0x3f1cb9c2	0.61220944
77	0xbf0b6aae	-0.54459655
78	0xbe2a1fc1	-0.16613676
79	0xbff3ef5d	-1.9057423
80	0x3fabb326	1.3414047
81	0xbf3301fc	-0.699249
82	0x3e28ab14	0.16471511
83	0x3efe5396	0.49673146
84	0x3e705229	0.23468842
85	0x3f8e9bca	1.1141293
86	0xbf9435bb	-1.1578897
87	0xbf1debab	-0.61687726
88	0xbf0c58b7	-0.5482287
89	0x3e7378dc	0.23776573
90	0xbf5293d9	-0.8225685
91	0x3f17a331	0.59233385
92	0x3d50e383	0.050998222
93	0xbcc87399	-0.024469184
94	0xbe6a59d0	-0.22885823
95	0xbf470c86	-0.77753484
96	0xbea90378	-0.3301046
97	0x3cdbc341	0.026826503
98	0xbfa7cbb5	-1.3109041
99	0x3e6a7959	0.22897853
100	0xbf0db5d9	-0.553556
101	0xbfe7c9a7	-1.8108414
102	0xbff06bbd	-1.8782879
103	0xc016e498	-2.3577023
104	0x3f88d1ee	1.0689065
105	0x3fa710fe	1.3052061
106	0xbf173862	-0.5907041
107	0xbe495484	-0.19661146
108	0x3f4a8521	0.7910939
109	0x3e9540e9	0.29151085
